…
riable has been deleted. In TF1, it can also mean the variable is uninitialized. Debug info: container=localhost, status=Not found: Resource localhost/dense_5_1/kernel/class tensorflow::Var does not exist.\n     [[{{node ReadVariableOp_21}}]]\n</code></pre>\n<p>The actor and critic networks are as follows:</p>\n<pre><code>ACTOR NETWORK\nModel: &quot;sequential&quot;\n_________________________________________________________________\nLayer (type)                 Output Shape              Param #   \n=================================================================\nflatten (Flatten)            (None, 10)                0         \n_________________________________________________________________\ndense (Dense)                (None, 32)                352       \n_________________________________________________________________\nactivation (Activation)      (None, 32)                0         \n_________________________________________________________________\ndense_1 (Dense)              (None, 32)                1056      \n_________________________________________________________________\nactivation_1 (Activation)    (None, 32)                0         \n_________________________________________________________________\ndense_2 (Dense)              (None, 32)                1056      \n_________________________________________________________________\nactivation_2 (Activation)    (None, 32)                0         \n_________________________________________________________________\ndense_3 (Dense)              (None, 10)                330       \n_________________________________________________________________\nactivation_3 (Activation)    (None, 10)                0         \n=================================================================\nTotal params: 2,794\nTrainable params: 2,794\nNon-trainable params: 0\n_________________________________________________________________\nNone\n</code></pre>\n<pre><code>CRITIC NETWORK\nModel: &quot;model&quot;\n__________________________________________________________________________________________________\nLayer (typ
…
Output Shape         Param #     Connected to                     \n==================================================================================================\nobservation_input (InputLayer)  [(None, 1, 10)]      0                                            \n__________________________________________________________________________________________________\naction_input (InputLayer)       [(None, 10)]         0                                            \n__________________________________________________________________________________________________\nflatten_1 (Flatten)             (None, 10)           0           observation_input[0][0]          \n__________________________________________________________________________________________________\nconcatenate (Concatenate)       (None, 20)           0           action_input[0][0]               \n                                                                 flatten_1[0][0]                  \n__________________________________________________________________________________________________\ndense_4 (Dense)                 (None, 32)           672         concatenate[0][0]                \n__________________________________________________________________________________________________\nactivation_4 (Activation)       (None, 32)           0           dense_4[0][0]                    \n__________________________________________________________________________________________________\ndense_5 (Dense)                 (None, 32)           1056        activation_4[0][0]               \n__________________________________________________________________________________________________\nactivation_5 (Activation)       (None, 32)           0           dense_5[0][0]                    \n__________________________________________________________________________________________________\ndense_6 (Dense)                 (None, 32)           1056        activation_5[0][0]               \n__________________________________________________________________________________________________\nactivation_6 (Activation)       (None, 32)           0           dense_6[0][0]                    \n__________________________________________________________________________________________________\ndense_7 (Dense)                 (None, 1)            33          activation_6[0][0]               \n__________________________________________________________________________________________________\nactivation_7 (Activation)       (None, 1)            0           dense_7[0][0]                    \n==================================================================================================\nTotal params: 2,817\nTrainable params: 2,817\nNon-trainable params: 0\n__________________________________________________________________________________________________\nNone\n</code></pre>\n<p>Here is the code for DDPG agent</p>\n<pre><code># Create DD
…
